Using device: cuda
==========================================================================================
Layer (type:depth-idx)                   Output Shape              Param #
==========================================================================================
StrictGatedCNN                           [768, 10]                 9,054,083
├─Linear: 1-1                            [768, 64]                 786,496
├─Linear: 1-2                            [768, 3]                  195
├─BatchNorm2d: 1-3                       [768, 256, 64, 64]        512
├─MaxPool2d: 1-4                         [768, 256, 32, 32]        --
├─BatchNorm2d: 1-5                       [768, 512, 32, 32]        1,024
├─MaxPool2d: 1-6                         [768, 512, 16, 16]        --
├─BatchNorm2d: 1-7                       [768, 512, 16, 16]        1,024
├─MaxPool2d: 1-8                         [768, 512, 8, 8]          --
├─BatchNorm2d: 1-9                       [768, 512, 8, 8]          1,024
├─MaxPool2d: 1-10                        [768, 512, 4, 4]          --
├─BatchNorm2d: 1-11                      [768, 512, 4, 4]          1,024
├─MaxPool2d: 1-12                        [768, 512, 2, 2]          --
├─AdaptiveAvgPool2d: 1-13                [768, 171, 1, 1]          --
├─Linear: 1-14                           [768, 1024]               525,312
├─Linear: 1-15                           [768, 512]                524,800
├─Linear: 1-16                           [768, 10]                 5,130
├─AdaptiveAvgPool2d: 1-17                [768, 171, 1, 1]          --
├─Linear: 1-18                           [768, 1024]               (recursive)
├─Linear: 1-19                           [768, 512]                (recursive)
├─Linear: 1-20                           [768, 10]                 (recursive)
├─AdaptiveAvgPool2d: 1-21                [768, 170, 1, 1]          --
├─Linear: 1-22                           [768, 1024]               (recursive)
├─Linear: 1-23                           [768, 512]                (recursive)
├─Linear: 1-24                           [768, 10]                 (recursive)
==========================================================================================
Total params: 10,900,624
Trainable params: 10,900,624
Non-trainable params: 0
…
