Using device: cuda
==========================================================================================
Layer (type:depth-idx)                   Output Shape              Param #
==========================================================================================
StrictGatedCNN                           [512, 10]                 14,960,515
├─Linear: 1-1                            [512, 64]                 786,496
├─Linear: 1-2                            [512, 3]                  195
├─BatchNorm2d: 1-3                       [512, 512, 64, 64]        1,024
├─MaxPool2d: 1-4                         [512, 512, 32, 32]        --
├─BatchNorm2d: 1-5                       [512, 512, 32, 32]        1,024
├─MaxPool2d: 1-6                         [512, 512, 16, 16]        --
├─BatchNorm2d: 1-7                       [512, 512, 16, 16]        1,024
├─MaxPool2d: 1-8                         [512, 512, 8, 8]          --
├─BatchNorm2d: 1-9                       [512, 512, 8, 8]          1,024
├─MaxPool2d: 1-10                        [512, 512, 4, 4]          --
├─BatchNorm2d: 1-11                      [512, 512, 4, 4]          1,024
├─MaxPool2d: 1-12                        [512, 512, 2, 2]          --
├─BatchNorm2d: 1-13                      [512, 512, 2, 2]          1,024
├─BatchNorm2d: 1-14                      [512, 512, 2, 2]          1,024
├─AdaptiveAvgPool2d: 1-15                [512, 171, 1, 1]          --
├─Linear: 1-16                           [512, 1024]               525,312
├─Linear: 1-17                           [512, 512]                524,800
├─Linear: 1-18                           [512, 10]                 5,130
├─AdaptiveAvgPool2d: 1-19                [512, 171, 1, 1]          --
├─Linear: 1-20                           [512, 1024]               (recursive)
├─Linear: 1-21                           [512, 512]                (recursive)
├─Linear: 1-22                           [512, 10]                 (recursive)
├─AdaptiveAvgPool2d: 1-23                [512, 170, 1, 1]          --
├─Linear: 1-24                           [512, 1024]               (recursive)
├─Linear: 1-25                           [512, 512]                (recursive)
├─Linear: 1-26                           [512, 10]                 (recursive)
==========================================================================================
Total params: 16,809,616
Trainable params: 16,809,616
Non-trainable params: 0
…
